…
                    "answer_id": 62308994,
                    "question_id": 38160940,
                    "link": "https://stackoverflow.com/questions/38160940/how-to-count-total-number-of-trainable-parameters-in-a-tensorflow-model/62308994#62308994",
                    "body": "<pre><code>model.summary()\n</code></pre>\n<pre><code>Model: &quot;sequential_32&quot;\n_________________________________________________________________\nLayer (type)                 Output Shape              Param #   \n=================================================================\nconv2d_88 (Conv2D)           (None, 240, 240, 16)      448       \n_________________________________________________________________\nmax_pooling2d_87 (MaxPooling (None, 120, 120, 16)      0         \n_________________________________________________________________\nconv2d_89 (Conv2D)           (None, 120, 120, 32)      4640      \n_________________________________________________________________\nmax_pooling2d_88 (MaxPooling (None, 60, 60, 32)        0         \n_________________________________________________________________\nconv2d_90 (Conv2D)           (None, 60, 60, 64)        18496     \n_________________________________________________________________\nmax_pooling2d_89 (MaxPooling (None, 30, 30, 64)        0         \n_________________________________________________________________\nflatten_29 (Flatten)         (None, 57600)             0         \n_________________________________________________________________\ndropout_48 (Dropout)         (None, 57600)             0         \n_________________________________________________________________\ndense_150 (Dense)            (None, 24)                1382424   \n_________________________________________________________________\ndense_151 (Dense)            (None, 9)                 225       \n_________________________________________________________________\ndense_152 (Dense)            (None, 3)                 30        \n_________________________________________________________________\ndense_153 (Dense)            (None, 1)                 4         \n=================================================================\nTotal params: 1,406,267\nTrainable params: 1,406,267\nNon-trainable params: 0\n_________________________________________________________________\n</code></pre>\n"
                },
                {
                    "owner": {
                        "account_id": 5259350,
                        "reputation": 114,
…
